market/rl/log/policy_sup_single.pth (torch, 122791 bytes, 6 tensors)

weight f4 [128, 100]
000000 0a 6f 67 3e 4a b1 a7 3e 84 17 9a 3e 36 d4 94 3e
       0.22600952 0.32752448 0.30096066 0.29068154
000010 0d e7 11 3f 0b f8 c0 3e c5 e5 46 3e 99 60 b4 3e
       0.5699318 0.37689242 0.19423588 0.35229948
000020 46 a9 82 3e d6 f2 f7 3d 86 81 ec 3d b4 40 6c bd
       0.2551977 0.12106864 0.11548142 -0.057678893
000030 e9 b7 86 3e 0b e8 d9 bc 60 98 7b bd 3b 6e 23 3d
       0.26312187 -0.026599905 -0.061424613 0.039900046
000040 45 5d 91 3e e0 02 98 3c a4 b7 7b bd 5c 2a b6 be
       0.28391472 0.018556058 -0.06145443 -0.35579193
000050 bc f4 19 bf e7 0f c8 be 77 06 e1 be 1c a2 b2 be
       -0.6013906 -0.39074633 -0.43950245 -0.34889305
000060 b2 8d a8 be 81 5f 14 bf 74 9c 19 bf 13 1e e0 be
       -0.32920605 -0.5795823 -0.60004354 -0.43772945
000070 6f 91 72 be d7 07 50 be b9 73 84 be 1b ef 82 be
       -0.23688291 -0.2031549 -0.2586954 -0.25573048
000080 55 46 5e be 2f 85 0d 3e 51 97 00 be 53 db a4 3d
       -0.21706517 0.13820337 -0.12557723 0.08049645
000090 22 d1 17 be 40 9f a2 be 78 47 e7 3d 1d 86 bf 3e
       -0.14825872 -0.31762123 0.112929285 0.37407008
0000a0 2f 6e b5 3e cd bb db 3e cc 61 40 bd f3 99 da 3d
       0.35435626 0.42916718 -0.046968266 0.10673895
0000b0 8f 82 c6 3c 29 4d b2 3e 1b f3 20 be 4e 37 dd bd
       0.024232177 0.34824494 -0.15717737 -0.10801564
0000c0 37 cd c1 bd 63 a8 69 be 8b c4 5c be 4a 3c 7a 3d
       -0.0946297 -0.2281814 -0.2155935 0.061092652
0000d0 f2 f9 e9 3e b7 6f 3a be b1 f9 a6 3e 95 30 2a bf
       0.45698506 -0.18206678 0.32612374 -0.6648038
0000e0 9e 75 7e be e2 3a 0d 3d 86 e9 1a 3e 95 da 9a 3d
       -0.24849555 0.034479983 0.15128145 0.075612225
0000f0 a0 f7 da be 3a a5 aa be 3c c3 43 bf 05 62 43 bf
       -0.42767048 -0.33329183 -0.7646978 -0.7632144
000100 85 a5 1b bf 3c 4f 8a be c5 28 18 3d c6 f1 2d 3e
       -0.6079944 -0.27013576 0.037148256 0.1698676
000110 4c 07 8e bd d5 ce b3 bd 91 18 25 be 98 4e e7 be
       -0.069349855 -0.087796845 -0.16122653 -0.4517715
000120 68 3d 9f be b5 73 5e be 8f 2c aa be 73 c1 6e be
       -0.31101537 -0.21723826 -0.3323712 -0.23315983
000130 ac ad 3d 3d 7a b4 89 3d 4a 42 af 3d 92 4c 5b 3d
       0.046308205 0.06723876 0.085575655 0.05353982
000140 3e 79 16 3f 82 87 fd 3e 7e 10 f5 3e 28 31 88 3e
       0.5877875 0.49517447 0.47864145 0.26600003
000150 8e a7 e1 3e 92 94 d5 3e 9b 05 e3 3e 78 64 92 3e
       0.44073147 0.41714913 0.44340214 0.28592277
000160 c5 fc 7e 3e 78 83 b9 3e 86 00 a9 3e 04 eb f9 3e
       0.24901111 0.36233115 0.33008212 0.48812115
000170 db 8e 00 3f ae 8a 05 3f 61 3a 99 3e 0d 23 0f be
       0.5021798 0.52164733 0.29927352 -0.13978215
000180 d8 e4 75 3d 02 0c 2b 3e b9 5b a6 3e 12 14 d0 3e
       0.060032696 0.167038 0.32491854 0.40640312
000190 5f 91 1c 3f 5a 55 1b 3f 29 a6 f3 3e a5 16 04 3f
       0.6115932 0.6067711 0.47587708 0.5159705
0001a0 c6 3f 47 3f 55 85 00 3e 75 31 09 3e 41 8d 3a 3e
       0.77831686 0.12550862 0.13397773 0.18217947
0001b0 e8 95 b2 3d 8b d1 8c 3e d1 1c 80 3e 8f 69 5e 3e
       0.087199986 0.2750362 0.25021985 0.21719955
0001c0 87 f4 9f 3e ed 0e 8f be 7c 27 8e be 1f c7 1f be
       0.31241247 -0.27941075 -0.277645 -0.15603302
0001d0 ba f0 73 bd 6f a8 d9 bd d5 76 ad be af ae 8f 3e
       -0.059555747 -0.10627829 -0.33879724 0.2806296
0001e0 f0 2b 8c be 25 11 37 be 79 2c 8b be 4f 01 4b bd
       -0.27377272 -0.17877634 -0.27182367 -0.049561795
0001f0 98 dc 89 be 3b c9 92 be 3f 7a 59 be 74 b3 93 be
       -0.26926112 -0.28669152 -0.2123804 -0.2884785
000200 42 87 5f be 6b fd f7 bd 4f ae 37 be f3 e1 f1 bc
       -0.2182894 -0.121088825 -0.17937587 -0.029526686
000210 70 b1 5e be db 1f 49 be 60 62 ba be 21 30 76 be
       -0.21747375 -0.19641058 -0.3640318 -0.24041797
000220 9a 10 da be 8e ed c5 be 40 c0 14 bf 85 53 19 bf
       -0.4259079 -0.38657802 -0.5810585 -0.59893066
000230 95 e0 2d bf 15 3e 22 bf 63 86 12 bf 1f b2 c4 be
       -0.6792081 -0.6337598 -0.5723631 -0.38417146
000240 39 a0 ae be b7 62 e0 be 20 45 09 bf ab 14 9c be
       -0.34106615 -0.43825313 -0.536211 -0.30484518
000250 27 cb 3e be 7f e4 a9 be bb 94 9f be c1 c6 04 be
       -0.18632184 -0.3318214 -0.3116816 -0.12966444
000260 77 1a 97 be c5 14 42 be 68 c6 77 be 03 c3 88 3e
       -0.2951238 -0.18953235 -0.2419678 0.26711282
000270 89 f9 04 3e 77 c3 70 3e ec 43 c8 3e 51 58 81 3e
       0.12985815 0.23512064 0.3911432 0.25262693
000280 4d 02 01 3e 08 0e 25 3d 2c 85 62 3e 3d 34 05 3e
       0.12598534 0.040296584 0.22121114 0.13008209
000290 d0 fc 78 3e 40 11 d0 3e c7 82 b3 3e d0 21 c6 3e
       0.2431519 0.4063816 0.35060713 0.38697672
0002a0 cc 36 a5 3e 4b 2d 32 3e 81 ed 73 3e 31 44 a1 3e
       0.3226837 0.1740009 0.2382107 0.31497338
0002b0 85 85 aa 3e 87 aa 76 3e b0 86 ca be 19 df fc 3d
       0.33304992 0.24088489 -0.39555883 0.1234724
0002c0 1e 82 c5 3d e6 3f 0e 3e a4 b4 30 3e 85 ca ae be
       0.096439585 0.13891563 0.17256409 -0.34138885
0002d0 de 16 86 be 37 3a 14 bf 11 e0 a9 be 03 21 1f bf
       -0.2618932 -0.5790133 -0.33178762 -0.62159747
0002e0 cc f2 f6 be d9 b5 eb be 74 7d 0e bf e6 37 1a bf
       -0.48232114 -0.46037176 -0.55660176 -0.60241544
0002f0 10 b9 df be 06 ab 7e be dd 5c b4 bd 17 0a 81 be
       -0.4369588 -0.24869928 -0.08806775 -0.2520301
000300 67 e6 d1 be 41 51 30 be 5c 80 6f be 88 93 91 bd
       -0.40996096 -0.17218496 -0.23388809 -0.071082175
000310 e0 0b a0 3e 3f 92 88 3e 67 06 a7 3e 0b d7 70 3e
       0.3125906 0.26674077 0.32622072 0.23519532
000320 a2 2f df 3d ba 02 46 3d b0 f4 44 be b6 ad db 3d
       0.10897757 0.048342444 -0.19233966 0.10726492
000330 12 8d 60 bd 9e cd 29 3d 54 50 f0 3d 6d 1d 5b 3b
       -0.054822035 0.041455857 0.117340714 0.0033434287
000340 d1 01 9e bd d3 9d 88 be 49 97 21 bd 81 f3 96 bb
       -0.0771519 -0.2668291 -0.039450917 -0.0046066646
000350 e0 41 8f be 33 09 32 be 4a aa 83 3b 0c 4b 13 3e
       -0.27979946 -0.17386322 0.004018103 0.14384097
000360 e2 a5 0e 3e 27 21 84 bd 74 7b f0 3e 4d 4f 0a 3f
       0.13930467 -0.06451636 0.46969187 0.54027253
000370 be 2b 42 3f 53 3a 37 3f 34 db 0d 3f 02 24 04 3f
       0.75847995 0.7157337 0.554126 0.51617444
000380 40 23 24 3f 91 81 b2 3e 3c 7b 7c 3e b9 f9 03 3f
       0.6411629 0.34864476 0.24656385 0.5155292
000390 a6 6f b5 3e 85 8b 9f 3e 79 f4 d7 3e 2d 11 8a 3e
       0.35436743 0.31161132 0.42178705 0.2696623
0003a0 96 6c 8c 3e e3 22 4d 3f bc 16 2a 3f 1f 58 0e 3f
       0.27426594 0.8013136 0.6644094 0.5560321
0003b0 c7 73 05 3f e6 55 aa 3e e4 91 a3 be 55 15 04 be
       0.5212979 0.3326866 -0.31947243 -0.12898763
0003c0 38 17 7d be 93 89 c2 be 6b 69 0c 3b 62 7a b6 be
       -0.24715889 -0.37995586 0.0021425139 -0.35640246
0003d0 d0 8d 1b be 2a 87 cc bc d7 8d 97 bc 5d 44 7b be
       -0.15190816 -0.024966795 -0.018500252 -0.24537797
0003e0 cc 52 90 be bd 78 9f 3d 55 73 98 be 55 49 d6 be
       -0.2818817 0.07786701 -0.2977549 -0.41852823
0003f0 31 09 b9 bc 58 09 7f bd f2 ec f8 be 61 63 0f bf
       -0.02258739 -0.06226477 -0.48618275 -0.56011015

bias f4 [128]
000000 7f dc cb bd 21 12 55 3e 86 22 1e bf 66 5d 1c be
       -0.09954166 0.20807697 -0.6177143 -0.15270004
000010 a9 60 56 bf 04 ff 2b bf 5f 18 1a be d0 20 2b bf
       -0.8374124 -0.67186 -0.1504836 -0.6684694
000020 04 e7 48 bf ea c9 45 bf 51 09 66 be 90 75 49 bf
       -0.784775 -0.7726122 -0.22464491 -0.7869501
000030 5e ca 02 bf 2f f7 4c be c3 27 29 3e a6 06 92 be
       -0.5109004 -0.20016168 0.16519074 -0.28520697
000040 18 21 02 bf 6b 15 17 be ac 26 38 3b 1d 89 11 bf
       -0.5083175 -0.14754264 0.0028099222 -0.56849843
000050 f8 20 2f bf 0f aa a5 3e 6f 3c 21 bf a7 8f 72 be
       -0.6840968 0.32356307 -0.6298284 -0.23687612
000060 07 c1 1c bf 6f 68 ad be 5c c3 35 bf 5e 4d bd be
       -0.61232036 -0.3386874 -0.7100122 -0.3697309
000070 7f 00 6c bf 74 15 ac bd 62 53 b4 be 39 af f9 be
       -0.92188257 -0.08402529 -0.35219866 -0.48766497
000080 ff 6e 3f bf 5f ba 0d bf 20 ed 2e bf c7 5f 00 bf
       -0.7477874 -0.55362505 -0.68330574 -0.50146145
000090 2e 54 08 be 64 ef 42 be ba db 65 be 25 1d 89 3e
       -0.13313362 -0.19036633 -0.224471 0.26780048
0000a0 21 7a 2c bf e5 ae c2 bd 11 a1 31 bf a3 00 a8 be
       -0.67373854 -0.09506015 -0.6938639 -0.32812986
0000b0 76 3f 8f 3e a7 c8 14 bf eb 4c 3f be 04 bd 9a be
       0.27978104 -0.5811867 -0.18681686 -0.30222332
0000c0 75 de 1e bf 08 e7 2f bf 0c 76 b2 be 51 d5 a3 be
       -0.6205819 -0.687119 -0.34855688 -0.31998685
0000d0 f2 17 48 bf 21 7b 53 bf d3 78 0e bf 64 d1 4a bf
       -0.7816154 -0.82609755 -0.55653113 -0.79225755
0000e0 e4 e6 2e bf 68 80 f3 be e2 61 44 bf 5c 51 ca be
       -0.6832106 -0.47558904 -0.7671186 -0.39515197
0000f0 75 02 2a bf 36 69 37 bf eb f4 02 bf b2 d9 31 bf
       -0.6641 -0.71644914 -0.51154965 -0.694728
000100 9d bc 0a bf 40 4e a1 3d 23 3a d6 be 7e 7f 64 bf
       -0.5419405 0.07876253 -0.4184123 -0.8925704
000110 73 31 f9 be e9 99 ea be 0d 49 04 bf 0d eb 7a bf
       -0.4867054 -0.4582055 -0.51673967 -0.9801491
000120 f0 ec a2 be 54 76 aa bf ce 5e 39 bf 09 23 a2 be
       -0.31821394 -1.3317361 -0.72410285 -0.31667355
000130 f7 00 3f bf 2c a6 01 bf 0e 86 fa be cd df 23 bf
       -0.7461085 -0.50644183 -0.489304 -0.6401337
000140 ab a9 cd be bd 1f 30 bf b2 cc 15 bf a3 b9 d4 be
       -0.4016851 -0.6879843 -0.58515465 -0.4154788
000150 c6 35 b7 be e4 ac 11 3e 5c 5a bd be 53 14 d2 be
       -0.35783213 0.14226109 -0.36983 -0.4103113
000160 c1 27 d3 3d c8 70 da be 3d 68 18 bf 81 6e 06 be
       0.10310317 -0.4266417 -0.59534055 -0.13128091
000170 fc 88 c3 bc d6 08 51 bf c9 5c 62 be b1 0b 08 bf
       -0.02386903 -0.8165411 -0.22105707 -0.5314284
000180 68 4a 26 be 67 55 7c bf 79 da 17 be 33 2c 12 bf
       -0.16239321 -0.98567814 -0.14829434 -0.5709869
000190 ce f0 03 bf 28 51 5b be 7a a4 3c bf 1a a4 5a bf
       -0.51539314 -0.21417677 -0.7368847 -0.8540665
0001a0 75 7c 16 bf ab 65 83 bf 82 50 40 bf fc 4b fa 3c
       -0.58783656 -1.0265402 -0.75122845 0.03055381
0001b0 6e 04 c3 bd 49 cd 21 bf dd 6b 91 be 4e 94 09 bf
       -0.09522329 -0.63203865 -0.28402606 -0.5374192
0001c0 cb 13 5c bf ac cc 9e be 2d cd 82 be ef b4 01 bf
       -0.859677 -0.31015527 -0.25547162 -0.5066671
0001d0 7c 37 45 bf 01 28 1b bf 52 ce 70 bf f5 00 1f bf
       -0.7703779 -0.60607916 -0.9406482 -0.62110835
0001e0 ec 40 3e bf fc 31 c5 be 14 ab c3 be 55 84 ed be
       -0.7431781 -0.38514698 -0.3821646 -0.46390024
0001f0 9a 2d 4f bf 0a f8 24 bf 53 a8 bc be df 4b f8 be
       -0.8092896 -0.6444098 -0.3684717 -0.48495385

weight f4 [128, 128]
000000 9e 88 f0 bc 41 ea 8f bd b6 7c 67 3d b5 32 52 bd
       -0.02936202 -0.07027102 0.056515418 -0.05131789
000010 3c 98 8d bd 6a dd eb bc 81 34 51 bd 5e 71 32 bd
       -0.06913802 -0.028792102 -0.051075462 -0.043565147
000020 40 25 52 3c 75 dc af 3c d7 8a 07 bd e9 65 df bd
       0.012826264 0.021467427 -0.033091392 -0.1090811
000030 9e 8e d1 bd 6e a0 a6 bd 16 11 c9 bc 85 c3 1b bd
       -0.1023228 -0.08136068 -0.02454428 -0.03802826
000040 53 9c e2 bc a7 b6 9e ba 0f 40 d2 bc e8 e9 53 ba
       -0.027662432 -0.0012108878 -0.025665311 -0.0008083866
000050 80 8a 8c bd 40 62 49 be bc 66 5c bd 62 cb 11 3c
       -0.06862354 -0.19666386 -0.053808913 0.008898588
000060 1c 1f 35 3d ea 1f 0c bd 99 4a 0d 3d 83 d6 b6 bd
       0.04421912 -0.034210123 0.03449497 -0.089276336
000070 80 be a2 bc c7 ad aa bd b2 32 04 3c 9c 47 85 3d
       -0.019866228 -0.08333927 0.008068727 0.06507799
000080 d7 f1 b0 bd 6e 5b a7 3d ea c2 86 3b 74 4f a5 bd
       -0.08639877 0.08171736 0.004112591 -0.08071795
000090 72 20 c2 bc 75 fb 5c bd a6 9e ee bd 3c 0f b4 bd
       -0.023697112 -0.053950746 -0.116513535 -0.08791968
0000a0 29 2d aa bd 11 f8 84 bd 6d 1e 87 bc 8c 1e 8f 3c
       -0.08309395 -0.064926274 -0.016494 0.01747062
0000b0 d2 57 f4 bd 59 c1 05 be f0 70 38 bd e6 10 0d 3d
       -0.11930813 -0.13062038 -0.04502958 0.034439944
0000c0 d1 cc 13 bd b4 b5 94 bc d3 79 a9 3d c6 d2 ae bd
       -0.036084 -0.018153049 0.08275189 -0.085362956
0000d0 35 c6 c9 3c bc 6a 3b 3c f9 db c7 bd 8c db 85 3c
       0.024630645 0.011439022 -0.09758753 0.01634004
0000e0 12 a8 1c be 3a 29 73 bd 03 75 85 bd 0e 35 30 be
       -0.15298489 -0.05936549 -0.06516459 -0.17207739
0000f0 12 99 a3 bd da 4d ac bd 4a 9d 37 be 00 de 8f bd
       -0.0798818 -0.084132865 -0.17931095 -0.07024765
000100 d8 49 dd bc af 61 33 be d0 f0 07 3d 4f a3 ba bd
       -0.02701275 -0.17517732 0.03318864 -0.0911318
000110 f5 ac 37 3c 4f 50 a5 bd 7f 76 81 3b e9 7a ed bd
       0.01121067 -0.08071958 0.0039508934 -0.11595709
000120 01 b7 29 bd cc 2a b6 bd da 31 87 3c 54 6d cc bd
       -0.04143429 -0.088948816 0.016503263 -0.0998179
000130 69 a6 3a 3c 5a d8 10 be 32 4f 71 bb 6e 42 99 3c
       0.011392214 -0.14145032 -0.0036820886 0.018708434
000140 79 d0 a1 bc f2 3e bf bd 62 33 a2 3c cb ea d9 bc
       -0.019752728 -0.09338178 0.019799892 -0.026601216
000150 e6 fd 4b bd 6b 94 a2 bc ed 4c c4 bd cc 8c fb 3b
       -0.049802683 -0.019846162 -0.09584985 0.0076766964
000160 cb a5 42 bd 5e 7c d9 bd a8 30 2d 3c cf 40 0d bd
       -0.047521394 -0.10619424 0.010570683 -0.034485634
000170 dd d9 f6 bd f2 9d 6e bd d0 de c0 bd 89 e2 29 bd
       -0.12053273 -0.058256097 -0.09417498 -0.041475806
000180 01 21 cc bd f3 fe c0 bd 48 8b 6d bc 15 12 13 be
       -0.099672325 -0.09423628 -0.014498539 -0.14362366
000190 f2 5f b1 bd 6b 49 7c bd 3a ea 1e bc 5c 01 57 bd
       -0.08660878 -0.061593454 -0.009699399 -0.05249153
0001a0 78 0a 3c be bb cd 9d bc ac 47 da bb 0f 36 b5 bd
       -0.18363369 -0.019263139 -0.006661376 -0.088482015
0001b0 83 8c fb bc 4b e9 9c bd 1b 67 bb bd ea e5 fe bc
       -0.03070665 -0.076616846 -0.09150525 -0.031115491
0001c0 5a ea 08 be 33 f4 66 bc d4 32 a1 bd 96 b1 1a be
       -0.13370648 -0.014096308 -0.07871023 -0.15106806
0001d0 02 a6 06 bd 65 f2 e2 3c 4b d4 8d bd ab 02 22 be
       -0.03287316 0.027703473 -0.06925257 -0.1582133
0001e0 3a 71 e6 bd 76 9b 1d bd 56 3c 2c bd e1 5a b7 3c
       -0.11252065 -0.038478337 -0.04204973 0.022382202
0001f0 46 11 97 3c a3 6d 0a b9 e2 4a be 3c 44 4f 08 bc
       0.018440854 -0.00013201548 0.023229066 -0.00831968
000200 6d 51 66 bd 1e ed ee ba 09 c0 74 bd 57 91 f5 bd
       -0.056229997 -0.0018228625 -0.05975345 -0.11990612
000210 4e 9a ba bd b0 f4 26 bd be 6b 58 bd 75 65 9b bd
       -0.091114625 -0.040760696 -0.052837126 -0.07587711
000220 d4 55 e2 bd 1d 1d 1a 3c 03 32 90 bd 8e 51 82 bd
       -0.11051527 0.009406355 -0.07040789 -0.063632116
000230 a3 1e 87 bd 4e 3a 2e 3c 11 f0 e7 3c 75 bf dc 3c
       -0.0659764 0.010634018 0.028312715 0.026946763
000240 96 22 19 be 57 15 03 bd 85 ff bd bc 62 ee e9 bd
       -0.149546 -0.032002773 -0.02319313 -0.11422421
000250 65 30 19 bd 88 b9 3c 3c 15 3c 9b 3c 9f ee f8 bd
       -0.03739967 0.0115188435 0.018949548 -0.12154888
000260 ee 3e 1e be f2 4e e5 bd a5 22 8e bd 0b 56 b1 bc
       -0.15453693 -0.11196698 -0.06940202 -0.021647474
000270 01 4f 76 bd 4d d9 b5 bd e1 0e 3d bc 0f ec e3 bd
       -0.060133938 -0.088793375 -0.011539192 -0.11129009
000280 ca f2 c5 bd 29 f7 ce 3c bc dc 1a bd 49 31 16 bd
       -0.09665449 0.02526434 -0.037808165 -0.036668096
000290 03 fe 64 bd 06 51 47 3a 44 9d 33 bc d8 f4 40 bd
       -0.055906307 0.0007603321 -0.010962788 -0.0471085
0002a0 68 ee 68 bd 72 7e 19 bd aa c2 a5 3c 05 dd 45 3d
       -0.056867987 -0.037474103 0.020234425 0.048306484
0002b0 4f ac 11 bd f5 48 a1 bc 3a 89 15 bb 20 7f f0 bd
       -0.035564717 -0.019688109 -0.002281739 -0.11742997
0002c0 ac aa b9 bd 58 01 0e be b0 2f 1f bc 49 a5 da bb
       -0.09065756 -0.138677 -0.009715959 -0.0066725356
0002d0 9e 92 e2 bd 97 a3 98 bd 7a f3 e1 bd 40 73 34 3d
       -0.11063121 -0.07453077 -0.110327676 0.044055223
0002e0 4e 83 73 3c 97 09 b9 bc 00 dc df bc 63 de 67 bd
       0.014862848 -0.02258758 -0.027326584 -0.05660857
0002f0 af 8c b9 bd ca 51 15 be 20 3e ca bd 2e 24 d6 bd
       -0.090600364 -0.14581981 -0.09875131 -0.104561195
000300 55 31 c1 bd 1c 46 b4 bd 3b d4 b6 bd 03 65 10 be
       -0.094332375 -0.08802435 -0.089271985 -0.14101033
000310 69 b1 84 bd b8 2d c7 bc c7 a6 62 ba a3 d1 cb 39
       -0.06479151 -0.024313793 -0.00086460676 0.0003887537
000320 75 3c a0 bd a3 6a b3 bc 4a 7a 01 3d 0e 14 57 bd
       -0.07824031 -0.021901434 0.031610765 -0.05250936
000330 e3 9c 3c bd 02 e6 1a bc 10 8f 49 be 8b 15 b7 bb
       -0.046048056 -0.009454252 -0.1968348 -0.005587285
000340 33 d5 98 bd 11 26 0a bd 86 d7 15 be e5 9a 4b bd
       -0.074625395 -0.03372771 -0.14632997 -0.049708266
000350 a3 65 96 bd 76 74 2c bd c6 7f 66 bd 4e 9e 10 be
       -0.073436044 -0.042103253 -0.056274198 -0.14122888
000360 fe 7d 8f bc 07 c7 83 bc a2 34 00 bd 01 93 1c bd
       -0.017516132 -0.016086115 -0.031300195 -0.03822613
000370 2b 1c 30 bd fe f3 03 3d 77 9e 4e 3c 13 12 e8 bd
       -0.042995613 0.03221511 0.012611023 -0.113315724
000380 a6 f1 fd bd 10 f2 af bd 1f 74 d2 bc 02 30 2a bd
       -0.123996064 -0.08591092 -0.025690136 -0.04154969
000390 0c 62 81 bd 44 82 96 bd 80 e1 59 3d 64 fa 32 bc
       -0.06317529 -0.07349065 0.05319357 -0.010923956
0003a0 61 3c 42 bd b9 70 91 bc d0 c4 e3 bb 35 17 f3 bd
       -0.047420863 -0.017753946 -0.006950952 -0.11869661
0003b0 b9 5c cf bb 93 2c 2b 3d 70 0b 11 be db 6c 2c bd
       -0.006328192 0.041790556 -0.1416452 -0.042096
0003c0 de 12 54 bd 4d 05 36 bd 71 f4 a0 bd d9 ff 37 3d
       -0.051775806 -0.04443865 -0.078591235 0.04492173
0003d0 fc 2f e4 3c f1 93 8c bd cd 49 23 be 59 c1 f8 bd
       0.027854912 -0.06864155 -0.15946122 -0.12146253
0003e0 49 f7 99 bc 65 37 81 bd e1 50 0a be 4c 61 b9 bd
       -0.018794673 -0.06309394 -0.13507415 -0.09051761
0003f0 9f 0b 3e 3d 2f e5 90 3c b9 0f c0 bd 9c e3 87 bd
       0.0463978 0.017687408 -0.09377999 -0.0663521

bias f4 [128]
000000 77 3a b8 bd 66 ee cd bb c7 09 ca bd fd a5 12 be
       -0.08995526 -0.006284523 -0.09865146 -0.14321132
000010 81 52 0b be 30 5a 7b be 2e dc f9 bd 3e 5d 48 be
       -0.13605691 -0.24546123 -0.12200199 -0.19566819
000020 e7 da 5f bd a4 98 89 bd c7 a0 82 be f3 d1 d8 bd
       -0.05465212 -0.06718567 -0.25513288 -0.1058692
000030 1f 0a 0b be 0f 5d 20 be 8b 54 33 be 68 0f 72 be
       -0.1357808 -0.15660499 -0.1751272 -0.2363869
000040 ba 53 32 be 69 55 c3 bd 63 30 de 3d 5d 97 25 be
       -0.17414752 -0.09537775 0.10849073 -0.16171022
000050 99 9b aa bc d3 36 1e be f5 35 b0 bd 3c 4b 02 bd
       -0.020826148 -0.15450601 -0.086040415 -0.03181003
000060 3c 99 10 be 5b ba 13 be 53 0e 09 be ed ad 9b bd
       -0.14120954 -0.14426558 -0.1338437 -0.07601533
000070 48 eb 72 be 6c 88 38 be da e5 4a be 09 24 38 be
       -0.23722565 -0.18020791 -0.19814244 -0.17982496
000080 fe 1b c7 bd 3e 31 32 be e1 5a e2 bd cd 4b 13 be
       -0.09722136 -0.17401597 -0.1105249 -0.14384384
000090 54 3b 4d be 22 66 0d be 06 f7 00 bd 93 4f 54 be
       -0.20042163 -0.13808492 -0.03148558 -0.2073348
0000a0 f0 dd 5b be ca 7c 1d be fb a1 41 be 7a 3c 91 be
       -0.21471381 -0.15379634 -0.18909447 -0.28366452
0000b0 50 76 74 be 00 31 44 be 76 43 78 be 38 99 77 be
       -0.23873258 -0.19159317 -0.24244484 -0.24179542
0000c0 6a 7f 5e be 58 76 51 be d8 57 26 be 02 58 17 be
       -0.21728292 -0.20455301 -0.16244447 -0.14779666
0000d0 c7 eb 3e bd f0 3d ea bd 97 ff 75 be 04 d5 36 be
       -0.046611574 -0.11437595 -0.24023281 -0.17854697
0000e0 c8 db 56 be 01 90 00 be 80 75 82 be 84 33 84 bd
       -0.20982277 -0.12554933 -0.2548027 -0.06455138
0000f0 fc 59 22 be 1b 74 a7 bd ac 62 5d bd df 44 6f bd
       -0.15854639 -0.08176442 -0.05404918 -0.05841529
000100 bd 73 55 be ec 02 7e bd b3 f7 38 be e2 e4 8c be
       -0.20844932 -0.062014505 -0.1806324 -0.27518374
000110 bd bf 22 be 87 11 f9 3d 4d 23 de bd 76 63 77 be
       -0.15893455 0.12161546 -0.10846577 -0.24159035
000120 a6 76 27 be 23 dd c2 bd aa a5 e1 bd 0f b8 14 bd
       -0.16353855 -0.09514835 -0.11017926 -0.036308344
000130 7b 3f e2 bc 8a 0a ae bd 2e 58 4b be 71 1c 97 bd
       -0.02761816 -0.08498104 -0.19857857 -0.07378472
000140 29 57 38 be 30 67 7e be 3f 3f 84 be 18 05 3b be
       -0.18001999 -0.2484405 -0.25829503 -0.18263662
000150 65 34 51 be c6 37 fb 3c 2d d5 04 be 57 a8 17 be
       -0.20430143 0.030666243 -0.12971945 -0.1481031
000160 6f 5e 1d be 2a d6 0c be 1e 96 19 be 8c fa 75 bd
       -0.15368055 -0.13753572 -0.14998671 -0.060053393
000170 3d 41 62 bd ab 26 09 be e3 b0 3e be a4 75 31 be
       -0.055237997 -0.13393657 -0.18622164 -0.17330033
000180 97 71 ce bd f6 9a 3f be 1f c0 57 be e7 c4 02 be
       -0.10080259 -0.18711457 -0.21069382 -0.12770425
000190 fe 9a 77 be 15 38 d5 bd c7 76 1f be 9d 4a d1 bd
       -0.24180219 -0.104110874 -0.15572654 -0.102193095
0001a0 2c b5 5b be d0 c4 12 be b1 f5 0e be d5 ce 0c be
       -0.2145583 -0.1433289 -0.13960911 -0.13750775
0001b0 a1 01 3f be c6 67 d1 bd f5 55 41 be bb 0a dc bd
       -0.18652965 -0.10224871 -0.18880446 -0.10744234
0001c0 07 6a 0d be f7 f7 13 be 22 00 b6 bd b6 25 27 be
       -0.13809977 -0.1445006 -0.08886744 -0.1632298
0001d0 6b 63 31 be e9 7e 4c be e3 88 05 be 65 9a fd 3d
       -0.17323081 -0.19970287 -0.130405 0.12382964
0001e0 4e 92 11 bd 80 f4 77 be e0 e8 5f be 7d 76 31 be
       -0.035539918 -0.24214363 -0.21866179 -0.17330356
0001f0 1b 26 79 bd 46 b3 36 be 33 26 88 be d5 f9 34 be
       -0.060827356 -0.17841825 -0.26591644 -0.17673428

weight f4 [3, 128]
000000 7d e4 ab bd fb fb 14 bd f8 56 6b bd 7b a5 e6 bb
       -0.0839319 -0.03637312 -0.057455987 -0.00703877
000010 f0 b0 24 bd 35 e1 2d bc 4d 72 45 bc bd 53 ad bc
       -0.040207803 -0.010612776 -0.012051177 -0.021158094
000020 c7 9d 79 3d cf c5 12 3d 43 b1 b3 3d ee 7f 84 3d
       0.060941484 0.035833176 0.08774044 0.06469713
000030 5a 4c 87 bc 61 5d c9 3d 96 70 48 3b 85 0b 90 bc
       -0.0165159 0.09832264 0.0030584685 -0.017583618
000040 ab 16 07 3d 48 b5 ed 3c 1a f7 36 bd 16 fb 06 3d
       0.032980602 0.029017106 -0.04466925 0.032954298
000050 29 f1 dd 3d 8a 44 4b bd 5a 83 d1 3c 3f 24 23 bd
       0.10837013 -0.04962591 0.025575329 -0.03982949
000060 2b eb ba 3c b1 4d a4 3b 96 da 75 bc 46 87 5c bc
       0.022817215 0.0050141443 -0.015005728 -0.013459986
000070 0f 44 33 3d a1 00 33 3d 24 cd 8d 3c f3 26 37 bb
       0.043766078 0.04370177 0.017309733 -0.00279468
000080 a6 d3 b5 bb 90 bd 8d bc 38 87 60 3c 21 b4 1c bd
       -0.005548912 -0.017302305 0.013704114 -0.03825772
000090 63 bb 38 bd 88 c2 9c 3c ac fd fd bd 19 f8 48 bc
       -0.04510058 0.019135728 -0.124019 -0.012266182
0000a0 aa 17 81 bc 77 ae e5 bd 0b 1d d7 bc 63 5a ce bc
       -0.015758354 -0.11214917 -0.026258966 -0.025189584
0000b0 66 f2 44 3d 2f d9 71 bd 99 59 98 bc c0 d6 a3 bc
       0.04808273 -0.059045013 -0.018597411 -0.019999862
0000c0 e3 76 81 3d 24 8e d3 3c 3a 74 5c bd d1 2d 2f 3d
       0.06321504 0.025824614 -0.05382178 0.042768303
0000d0 c5 3d 19 bd 61 82 1f 3c bc 46 fe 3b 0a 5f 32 bc
       -0.037412424 0.009735675 0.007759897 -0.010886917
0000e0 41 d9 6d bd 80 8f f9 3c 0f 80 8f bc 65 41 80 3d
       -0.058068518 0.030463934 -0.017517118 0.06262473
0000f0 c4 7b 12 3d 11 94 5c 3d f3 d9 57 3d 3f 48 ed bb
       0.035762563 0.053852145 0.052698087 -0.0072412784
000100 79 6e b2 3c 75 8f 15 3b 06 ce 61 ba 1e 30 29 bc
       0.021781193 0.0022821103 -0.0008613769 -0.010326413
000110 8f 53 55 3c a4 c8 d9 bb 4e df 92 3c 18 50 de bc
       0.01302041 -0.0066462327 0.017928746 -0.027137801
000120 bc fa 88 bc cd 2a b8 bd 6c dd 18 3d 35 ec 80 bd
       -0.016721122 -0.089925386 0.03732054 -0.06295053
000130 d5 5d 14 3c 07 83 45 3c 66 c8 f8 3b 99 24 5d 3d
       0.009055574 0.012055165 0.0075922487 0.05398998
000140 c7 de 12 3d fc 4d 00 bd 02 e2 88 bc e9 59 59 3d
       0.03585699 -0.03132437 -0.016709331 0.05306426
000150 9c 2e c4 3c d6 77 b9 3c 2f 1e 97 3b ee 2b d8 3c
       0.023948006 0.02264015 0.0046117525 0.026388135
000160 bc 53 2c bd fe 53 85 3b 02 64 38 3d f7 9d aa 3d
       -0.042072043 0.0040688505 0.04501725 0.08330911
000170 fd 0b 89 3c 91 83 d8 bc 08 e2 01 3d 46 18 3d bd
       0.01672935 -0.026429923 0.0317097 -0.046165727
000180 91 41 1f bc ab 60 6d 3d 37 bc 08 bd 24 f5 87 3c
       -0.009720222 0.057953518 -0.03338262 0.016596384
000190 0b af 6d bc 74 ae 66 3d 4b a4 32 bd 82 24 81 3b
       -0.0145070655 0.056318715 -0.043613713 0.0039411196
0001a0 e1 78 5f 3c 3c 73 0d bd b3 96 78 bc e9 48 61 bc
       0.01363966 -0.034533724 -0.015172648 -0.013750293
0001b0 ee 3d 46 bd 2f 35 14 3d 08 2b c8 bc c2 30 b2 bd
       -0.048398905 0.036183532 -0.024434581 -0.08700706
0001c0 5f f7 10 bd 83 f2 98 3d 4e c2 44 3d ae 27 db 3b
       -0.03539216 0.074681304 0.048036866 0.00668808
0001d0 cc 66 7f bd 9e 50 16 3d 8c e4 bf bc 2e c9 e9 3c
       -0.062353894 0.036697976 -0.02342441 0.028538313
0001e0 3e 2b 4e 3c b3 e7 b7 bd 18 19 e4 3c 30 7b 4f 3d
       0.012583552 -0.0897974 0.027843997 0.05065459
0001f0 7c 5d d7 3d 7d 3f 23 bd 3f 1a ce 3b 3f 7a 56 bc
       0.105158776 -0.03985547 0.00628975 -0.013090669
000200 cc d4 87 be 5e ea eb bd 34 ac 92 bd 2a cb 62 bf
       -0.2652954 -0.11519311 -0.071617514 -0.88591254
000210 8c 68 b7 be eb 51 d4 bd 92 c0 d1 bd 9d b4 c0 bd
       -0.3582195 -0.10367187 -0.10241808 -0.09409449
000220 46 5c 72 be 1c 48 37 be 71 30 b2 bd 7c 72 a8 be
       -0.23668012 -0.17898601 -0.08700646 -0.32899845
000230 fe a4 f6 be 0a ac 8b be 45 d9 8f bd c4 73 21 bf
       -0.48172754 -0.27279693 -0.07023863 -0.6306727
000240 f5 93 0c bf 15 58 fc bd 7d e0 3f bf ca 91 b2 bc
       -0.54913265 -0.12321488 -0.74951917 -0.021798033
000250 a1 07 99 be d7 1c 8c be 4c ad 58 be e8 fa 10 bd
       -0.29888633 -0.27365753 -0.21159858 -0.035395533
000260 09 84 e0 3c d4 a8 c1 be 09 c9 a5 be 65 90 05 be
       0.02740671 -0.37824118 -0.3237994 -0.13043363
000270 18 e9 c9 bd 27 18 5e 3c 79 d1 82 bd db 38 c4 bd
       -0.09858912 0.013555563 -0.0638761 -0.09581157
000280 26 57 be bd 94 7f 3b 3d bb 35 e8 be f7 f7 89 be
       -0.09293966 0.045775965 -0.45353493 -0.26946995
000290 7c 36 04 bf c0 ff a6 bd 89 19 bf be 24 86 ab bc
       -0.51645637 -0.08154249 -0.3732417 -0.020937987
0002a0 a2 a2 71 be da c9 33 be 24 50 29 be 52 00 24 bf
       -0.23597196 -0.17557469 -0.16534477 -0.6406299
0002b0 ba 47 d1 3d 4c 90 d0 be 03 24 40 be 7f cb e2 be
       0.10218759 -0.4073509 -0.18763737 -0.4429588
0002c0 c5 15 9d be 8d bd d9 be 78 3c b3 be 1f 30 d0 be
       -0.3068067 -0.42527428 -0.35007071 -0.40661713
0002d0 f8 54 72 be 78 8a c6 bd 13 1c 12 be a4 be 9e be
       -0.23665226 -0.096943796 -0.14268522 -0.31004822
0002e0 f0 3d f2 be b3 44 65 3d 3e 1a ea be 97 87 48 bd
       -0.4731288 0.05597372 -0.45723146 -0.048957434
0002f0 30 ff a3 bc 2f 84 f8 bc bf 19 be bc b1 1d 41 be
       -0.020019144 -0.030336468 -0.023205636 -0.18858983
000300 12 9c 96 bf b7 90 9e be 77 3a 22 be b0 37 2f bf
       -1.1766379 -0.30969784 -0.15842615 -0.6844435
000310 36 a5 b8 bd a0 e1 f5 bf d8 f0 c1 be 89 b6 60 be
       -0.090158865 -1.920948 -0.37879062 -0.21944632
000320 e7 bc a0 be 9b fd 87 bf 80 47 e3 be e4 40 e1 bd
       -0.3139412 -1.0624269 -0.44390488 -0.10998705
000330 d4 5f 2f be 0d f7 30 be 27 bf 62 be 7f 2d 0f be
       -0.171264 -0.17281742 -0.22143231 -0.13982199
000340 df 22 6b 3c 5d c5 fb be 06 c9 4f be aa cf aa be
       0.014351576 -0.49174014 -0.20291528 -0.3336156
000350 c3 31 4a bf 6a 69 1e bf 43 e7 65 be 33 7e 28 be
       -0.7898218 -0.618796 -0.224515 -0.16454391
000360 a9 06 d7 bd b7 b6 4e be dc 2a 9c be ed 5c d7 bd
       -0.10499317 -0.20186888 -0.3050145 -0.10515771
000370 96 4f d5 bd b7 a6 84 be d2 b9 97 be a5 36 e8 bc
       -0.104155704 -0.25908443 -0.29633957 -0.028346369
000380 08 d0 07 be c1 eb f1 bd 62 2b b5 bf a2 4a b3 bc
       -0.13262951 -0.118125446 -1.4153864 -0.021886174
000390 0e a6 a3 be 70 55 96 be 7b fd 12 be 28 63 36 bd
       -0.31962627 -0.2936206 -0.14354508 -0.044528157
0003a0 97 a1 1f be d6 12 9b be f1 55 9f be 0c aa 84 bd
       -0.15588985 -0.30287808 -0.31120256 -0.06477746
0003b0 e4 b5 0f bf 76 2d e6 bc 0f eb 8a be 4a cb 43 bf
       -0.5613692 -0.02809785 -0.2713246 -0.7648207
0003c0 6d 09 e9 bd e3 63 27 bf 82 d4 93 3b 86 85 7f bf
       -0.11378751 -0.6538679 0.004511417 -0.99813116
0003d0 e2 13 f8 be b2 7e 1d be 89 55 8d be 26 ab 9a bf
       -0.4845267 -0.15380362 -0.2760432 -1.208348
0003e0 cd 0b bb bd ea 7d c3 bd 23 a9 04 be 52 48 25 bf
       -0.0913311 -0.095455006 -0.12955146 -0.6456348
0003f0 0c 4c 14 bf 32 f9 2b be c3 6c 8e be 59 52 ce be
       -0.5792854 -0.16794279 -0.27817354 -0.402972

bias f4 [3]
000000 88 b5 19 bf 98 ff 77 c0 e1 94 33 bf
       -0.6004262 -3.8749752 -0.70149046
